neuronal_network/esp_cubeai_for_integration/model.tflite (tflite, 71472 bytes, 8 tensors)

arith.constant f4 [16]
0	0x3d8e1b11	0.06938756
1	0x3d989208	0.07449728
2	0xba8b2820	-0.0010616817
3	0x3d828d63	0.063746236
4	0x3e334779	0.17507733
5	0xbd7bc583	-0.06146766
6	0x3de52de4	0.111903936
7	0x3e8524a4	0.26004517
8	0x3c9f94f1	0.0194802
9	0x3e412a36	0.18863758
10	0x3b23e4de	0.0025008242
11	0xbc9135e4	-0.017725892
12	0x3dbb4b15	0.0914518
13	0xbcf6b5d3	-0.030115997
14	0x3ceb2bda	0.028707433
15	0xbb99235d	-0.004673405

arith.constant1 f4 [16, 3, 3, 16]
0	0xbc505565	-0.012715672
1	0x3e242e67	0.16033326
2	0xbdd1250d	-0.10212145
3	0x3e287254	0.16449863
4	0x3e16f2e6	0.14741096
5	0x3e0daf73	0.1383646
6	0x3ddd2275	0.10797588
7	0x3dace1af	0.08441483
8	0x3daf61da	0.085635856
9	0xbd194dd0	-0.037427723
10	0x3e29574e	0.1653721
11	0x3d799fac	0.06094329
12	0xbcb54ba9	-0.022130804
13	0xbda0ea17	-0.07857149
14	0xbda07248	-0.078342974
15	0xbd1f229a	-0.038851358
16	0xbe10ea84	-0.1415196
17	0x3de33be1	0.11095405
18	0x3dd437bb	0.10362192
19	0x3d8c8bcc	0.06862602
20	0xbda4e3af	-0.0805124
21	0x3d902c08	0.07039648
22	0x3d06e2e4	0.032931224
23	0x3d9eab2b	0.077474914
24	0x3dd7dea6	0.10540514
25	0xbe184657	-0.14870583
26	0x3cae3985	0.021267662
27	0xbc87f380	-0.016595602
28	0x3de6f0f6	0.112764284
29	0xbda2d19f	-0.07950138
30	0xbcbe7e40	-0.02325356
31	0x3e196a9c	0.14982074
32	0xbe18468d	-0.14870663
33	0x3e3d1714	0.18465835
34	0xbdc635b8	-0.09678215
35	0x3e0f5518	0.13997304
36	0x3dd48952	0.10377754
37	0xbdcd126b	-0.100132786
38	0x3d4e5559	0.050374363
39	0xbd0e19ab	-0.034692448
40	0x3df34b57	0.11879604
41	0x3cfbf3f7	0.03075598
42	0xbd981b0d	-0.074270345
43	0xbdb4516d	-0.08804593
44	0xbe20afb6	-0.15692028
45	0x3d9ab2c2	0.075536266
46	0xbe1aeb6e	-0.15128872
47	0x3e22d4a0	0.15901423
48	0xbe068f84	-0.13140684
49	0xbdc9feb2	-0.098630324
50	0x3df6d63b	0.1205258
51	0x3d1d4c75	0.038402993
52	0x3dd28054	0.10278383
53	0x3e15f372	0.14643648
54	0xbdeda47b	-0.11603638
55	0x3c748fcf	0.014926865
56	0x3c790de2	0.015201064
57	0x3d3377ca	0.04381541
58	0x3d0730b8	0.033005446
59	0xbd2391c1	-0.039933924
60	0x3def3968	0.11680871
61	0x3ded99c8	0.11601597
62	0xbcca938a	-0.024728555
63	0x3e20da59	0.15708293
64	0x3d0e1d8a	0.03469614
65	0x3d4d2c88	0.050091296
66	0x3e09af4e	0.1344578
67	0x3c3d782b	0.011564295
68	0xbd67a7aa	-0.05655638
69	0xbd7f719a	-0.0623642
70	0x3dff653d	0.124704815
71	0x3dba230c	0.09088716
72	0x3d94df7a	0.07269187
73	0x3d2d9ef2	0.04238791
74	0x3cc5d718	0.024150416
75	0xbe01ea8b	-0.12687127
76	0xbce54cd5	-0.027990738
77	0x3d27d91f	0.040978547
78	0xbdf4bdc7	-0.1195026
79	0xbdbb8c63	-0.09157636
80	0x3d0339e7	0.03203764
81	0x3dd15080	0.10220432
82	0x3d77cd07	0.060498264
83	0xbdd6417b	-0.10461708
84	0xbe106a44	-0.14103037
85	0xbd796952	-0.060891457
86	0x3c0e5f17	0.008689663
87	0x3e026535	0.1273392
88	0xbcf0e3a2	-0.029405419
89	0xbd7d26b4	-0.06180449
90	0x3da992e4	0.0827997
91	0xbdd76df4	-0.10519019
92	0xbbb39e8a	-0.005481546
93	0x3e114be0	0.141891
94	0x3db794b3	0.08963909
95	0x3d4eea76	0.050516568
96	0x3e126aa2	0.1429849
97	0xbdad5db2	-0.084651366
98	0x3cf3dad1	0.029767426
99	0xbdc97e0c	-0.09838495
100	0x3d86284c	0.06550655
101	0x3cf803b1	0.030275198
102	0xbcfa59aa	-0.030560333
103	0x3cfce76d	0.030872071
104	0x3d8096a9	0.06278736
105	0x3d4133df	0.04716861
106	0x3ddb7bbd	0.107169606
107	0xbd8cb785	-0.06870941
108	0x3e101caf	0.14073442
109	0x3de7c754	0.11317316
110	0xbdd5ee89	-0.104458876
111	0x3b501246	0.0031749173
112	0x3db19bcb	0.08672293
113	0x3e581526	0.21101817
114	0xbd4540eb	-0.048157614
115	0x3da5089c	0.08058283
116	0x3e301937	0.17197119
117	0xbcc9ad02	-0.02461863
118	0x3e19f15d	0.15033479
119	0x3e139ea9	0.14415993
120	0x3dc167e6	0.09443645
121	0xbcfd6c59	-0.030935453
122	0xbe070e5f	-0.13189076
123	0x3e0e2c11	0.13883997
124	0x3d606a4e	0.05478888
125	0x3cf73e60	0.03018111
126	0x3de2efb2	0.110808745
127	0xbdbcb1af	-0.09213578
128	0x3dbb5653	0.091473244
129	0x3dd5df59	0.10442991
130	0xbd4f3ddf	-0.050596114
131	0xbd871f10	-0.065977216
132	0xbdbb6c8a	-0.091515616
133	0xbe1cb74b	-0.15304296
134	0xbd9587cf	-0.07301294
135	0x3da786dc	0.08180019
136	0x3e1e75f2	0.1547468
137	0xbd3d65fd	-0.04623984
138	0x3e2748a3	0.16336302
139	0x3e2a3047	0.16619979
140	0x3df05786	0.11735444
141	0xbe00694b	-0.12540166
142	0xbe09973f	-0.13436602
143	0xbcf041f5	-0.029328326
144	0x3d7c325a	0.061571456
145	0xbd25b5f9	-0.040456746
146	0x3e21decc	0.15807647
147	0xbd6ed9f3	-0.05831332
148	0x3b57e739	0.0032944216
149	0xbd96bb9f	-0.07360005
150	0x3d2ef93e	0.042718165
151	0xbe0570c2	-0.13031295
152	0xbdd43924	-0.10362461
153	0xbd84da45	-0.06486944
154	0xbd202a3d	-0.03910278
155	0x3dfd19ff	0.12358474
156	0xbdb0e70b	-0.08637818
157	0xbd1abf46	-0.03778007
158	0xbdcf7a0a	-0.10130699
159	0xbc5a1add	-0.013312069
160	0xbd496e20	-0.04917729
161	0x3df34fc7	0.11880451
162	0x3dd0dd32	0.1019844
163	0xbbc15592	-0.0059000934
164	0x3d80d7e0	0.06291175
165	0x3ddd202b	0.10797151
166	0xbde28d9d	-0.11062167
167	0x3d5fc0d0	0.05462724
168	0xbded98cc	-0.11601409
169	0x3d2391a9	0.039933834
170	0xbd8fcdeb	-0.070216976
171	0xbd91d490	-0.07120621
172	0xbd94e20c	-0.072696775
173	0xbe0cfbe7	-0.13767968
174	0xbc53a552	-0.012917833
175	0xbddb1cd0	-0.10698855
176	0x3e13c1ed	0.14429446
177	0xbdaa6cb9	-0.083215185
178	0x3c889bd0	0.01667586
179	0xbde6d5e1	-0.11271263
180	0x3dab7a1a	0.083728984
181	0x3d5326d3	0.051550698
182	0x3e0167a5	0.12637194
183	0xbdeb80d4	-0.114991814
184	0x3e19191a	0.14950982
185	0x3ba0a0d2	0.004901984
186	0x3e0dc5a0	0.13844919
187	0x3d9aedcd	0.07564888
188	0x3e138bc3	0.14408784
189	0xbd985b94	-0.07439342
190	0x3c992f52	0.018699322
191	0xbccd7bcc	-0.025083445
192	0x3db170c3	0.08664086
193	0xbe0f6320	-0.14002657
194	0xbda069e2	-0.078326955
195	0xbbc648ac	-0.0060511436
196	0xbdc809de	-0.09767507
197	0xbd1f2ef9	-0.038863156
198	0xb91c9eb0	-0.00014936435
199	0xbd13a222	-0.036043294
200	0x3bd16dba	0.0063912543
201	0x3e1b14b9	0.15144624
202	0x3dac4fd8	0.084136665
203	0x3d42f9ca	0.0476015
204	0x3e0dd356	0.1385015
205	0x3da11d6c	0.0786694
206	0xbd5cc785	-0.053901214
207	0x3d22770f	0.039664324
208	0x3da855e4	0.08219507
209	0xbda58965	-0.080828466
210	0xbd19c116	-0.037537657
211	0x3dbd8970	0.0925473
212	0xbd8d0035	-0.06884805
213	0x3e0fa490	0.1402762
214	0x3d3f7be1	0.046749
215	0xbca2181f	-0.019786892
216	0xb9d551c7	-0.00040687455
217	0xbcccdbf2	-0.025007222
218	0x3cbdb033	0.023155307
219	0x3ccf65fc	0.025317185
220	0xbc812ef2	-0.015769456
221	0x3de91685	0.113812484
222	0x3d86c870	0.06581199
223	0x3dd3769e	0.10325359
224	0x3d9624cc	0.07331237
225	0xbcb2ee3c	-0.021842115
226	0xbdc38327	-0.095465
227	0xbe0a938a	-0.13532844
228	0xbc826304	-0.015916355
229	0xbe159522	-0.14607671
230	0xbdcb45cb	-0.09925421
231	0x3d222f7f	0.039596077
232	0xbd68c303	-0.056826603
233	0xbd423ffa	-0.047424294
234	0x3df50a01	0.11964799
235	0x3e18e8ba	0.14932528
236	0x3e2ac9a5	0.16678484
237	0xbdbb54d2	-0.091470376
238	0xbcadfcbe	-0.02123868
239	0xbd9cb5ee	-0.07651888
240	0x3dd600d8	0.1044938
241	0x3e354214	0.17700988
242	0xbe0e09e3	-0.13870959
243	0xbd367f44	-0.044554964
244	0xbb36e4b0	-0.0027907304
245	0x3c822f1e	0.015891608
246	0x3dbf2e1a	0.09334965
247	0x3dd22b88	0.10262209
248	0x3d056c2c	0.032573864
249	0x3c497f28	0.012298383
250	0x3de1c2ab	0.11023458
251	0xbd54dfae	-0.05197113
252	0x3dacd57c	0.084391564
253	0x3c6a4229	0.014298
254	0x3d80e83b	0.062942944
255	0xbd9c65bc	-0.07636592

arith.constant2 f4 [5, 25]
0	0x3e86810e	0.26270336
1	0xbe42211f	-0.18957947
2	0xbec3e096	-0.38257283
3	0x3c42447d	0.011857149
4	0x3e803baf	0.25045535
5	0xbedf5191	-0.43616918
6	0xbe363881	-0.17794992
7	0xbd5550f3	-0.052079152
8	0xbec8d8eb	-0.39227995
9	0xbec2dce6	-0.38059157
10	0xbded1dd3	-0.11577954
11	0xbe297d12	-0.16551617
12	0xbe2e49ba	-0.17020312
13	0x3e878eca	0.26476127
14	0xbe2cc96c	-0.16873711
15	0x3eee7892	0.46576363
16	0xbe9b6196	-0.3034789
17	0x3d94f5d9	0.07273454
18	0x3d7e3b32	0.06206817
19	0x3e1105a6	0.14162311
20	0xbdaeb3d8	-0.08530396
21	0x3d52ee65	0.051496882
22	0x3e963e3c	0.29344356
23	0x3e9eead4	0.31038535
24	0x3ef653b8	0.48110747
25	0x3e961738	0.2931459
26	0xbec2a21b	-0.38014302
27	0xbeb14a2c	-0.346269
28	0x3e1aca77	0.15116297
29	0xbea68f43	-0.32531175
30	0x3f0a291f	0.53968996
31	0x3d9804ea	0.07422812
32	0xbe04336c	-0.12910241
33	0x3edc7e16	0.43064946
34	0xbf05ae75	-0.52219325
35	0x3d19dc7e	0.037563793
36	0xbf2196c6	-0.63120687
37	0x3e8269be	0.254713
38	0x3ecf65e5	0.40507427
39	0xbe3c5255	-0.18390782
40	0x3c57b312	0.013165252
41	0xbe33352a	-0.17500749
42	0x3e4778cc	0.19479674
43	0x3e736c18	0.23771703
44	0xbe49d845	-0.19711407
45	0xbf1fa698	-0.62363577
46	0x3ec3655f	0.38163278
47	0xbddc5ee0	-0.107602835
48	0x3e82da9f	0.2555742
49	0x3ee960ca	0.45581657
50	0x3f0be4b0	0.54645824
51	0xbe224440	-0.15846348
52	0xbea555b5	-0.32291952
53	0x3e0fdbb6	0.14048657
54	0x3e0f3f1d	0.1398892
55	0x3ee95607	0.45573446
56	0xbf072b38	-0.5280032
57	0x3ddee453	0.10883393
58	0xbe1a348f	-0.15059112
59	0x3ec2aeae	0.38023895
60	0x3f01ee74	0.50754476
61	0xbec9bf76	-0.39403886
62	0x3ecdf533	0.40226135
63	0x3dc2be5c	0.095089644
64	0x3e2b2ad1	0.16715552
65	0x3e5507a7	0.208037
66	0x3e7f87a2	0.24954084
67	0x3e89a413	0.2688299
68	0x3e9aa7f3	0.3020626
69	0x3eb1cd40	0.34726906
70	0xbf11a462	-0.56891453
71	0xbb39c352	-0.002834518
72	0x3ec50f7b	0.38488373
73	0xbebece47	-0.37266752
74	0xbec95bfb	-0.39327988
75	0xbd306095	-0.043060858
76	0x3e0bb5de	0.13643596
77	0x3ec37ac3	0.38179597
78	0xbe3c16f6	-0.18368134
79	0xbb430596	-0.0029757968
80	0xbe918814	-0.28424132
81	0xbd8f10e8	-0.069856465
82	0x3ed77d00	0.42087555
83	0xbe47ae51	-0.1950009
84	0x3e628844	0.22122294
85	0x3e9ddee9	0.3083413
86	0xbccd98ac	-0.025097214
87	0x3e0c194f	0.1368153
88	0xbe9a5a95	-0.30147234
89	0xbecd3537	-0.40079662
90	0x3e35807e	0.17724797
91	0xbf05d68e	-0.5228051
92	0x3e873ad1	0.2641206
93	0xbebbbb21	-0.36666206
94	0xbdd4dbfb	-0.103935204
95	0xbe598a44	-0.2124415
96	0x3ea314a5	0.31851688
97	0xbda95588	-0.08268267
98	0x3eca28cd	0.39484254
99	0xbdf63057	-0.12020939
100	0xbdf91028	-0.12161285
101	0xbec48e15	-0.3838965
102	0x3ecb983b	0.3976458
103	0x3ec4bec0	0.3842678
104	0x3e7a0e4b	0.24419515
105	0xbd930b7b	-0.07179924
106	0xbeee0cce	-0.46494144
107	0x3ce2776b	0.027644834
108	0xbd220e2b	-0.039564293
109	0xbe875eb2	-0.26439434
110	0x3e26a218	0.16272771
111	0xbf11da08	-0.56973314
112	0xbe8594be	-0.26090044
113	0x3e9022c7	0.28151533
114	0x3eca9c37	0.39572307
115	0xbed68dea	-0.41905147
116	0x3cf68be7	0.030096008
117	0xbdde194a	-0.10844667
118	0xbe9f8958	-0.31159472
119	0xbea0f7f3	-0.3143917
120	0x3e0e9839	0.13925256
121	0xbe08bb80	-0.13352776
122	0xbec8683d	-0.39142027
123	0xbeb0f030	-0.3455825
124	0x3e8bab6a	0.27279216

arith.constant3 f4 [25, 576]
0	0x3d7fd7bf	0.06246161
1	0x3d38f908	0.04515937
2	0xbd5d195e	-0.05397927
3	0xbcb41464	-0.02198238
4	0x3d4e4b74	0.050364926
5	0xbb17c2f6	-0.0023156977
6	0xbdbeeff1	-0.09323109
7	0xbcc0c470	-0.023531169
8	0x3d0bd55d	0.034139026
9	0x3d84568f	0.06461822
10	0x3d23cef8	0.039992303
11	0xbda0d718	-0.07853526
12	0xbce56aeb	-0.028005084
13	0xbae60afa	-0.0017550879
14	0x3dd9276f	0.106032245
15	0xbd83c20a	-0.064334944
16	0xbcf2fb57	-0.029660864
17	0x3aedb9bd	0.0018137019
18	0xbdb9358a	-0.09043415
19	0x3d888e96	0.06667821
20	0xbd998ca8	-0.07497531
21	0xbb3667c1	-0.0027832838
22	0xbd23a513	-0.03995235
23	0xbc1ad7c3	-0.009450856
24	0x3db1085e	0.08644174
25	0x3d8af337	0.06784671
26	0xbd26d09d	-0.040726293
27	0x3cf098b6	0.029369693
28	0xbd0ec045	-0.03485133
29	0x3d7a7686	0.06114819
30	0x3d7a269a	0.06107197
31	0xbd9cf3ca	-0.076636866
32	0xbd355364	-0.04426898
33	0xbd2bf0cb	-0.041977685
34	0xbb08adf7	-0.0020855644
35	0x3d168642	0.036749132
36	0x3cba4a2e	0.02274045
37	0x3cabae59	0.020957159
38	0x3d9c8e42	0.07644321
39	0xbd9aee63	-0.07565
40	0x3e0316c0	0.12801647
41	0x3ba13d45	0.004920634
42	0x3d4a9925	0.049462456
43	0x3cb0ee04	0.02159787
44	0xbd9b3b7a	-0.07579704
45	0xbd8a4627	-0.06751662
46	0xbd666130	-0.05624503
47	0xbd2d5e2e	-0.042326145
48	0xbceec3a0	-0.029146016
49	0xbdac06cf	-0.08399736
50	0x3be8c481	0.007103503
51	0x3d13a9fe	0.03605079
52	0x3da5dbea	0.08098586
53	0x3e0f4750	0.13992047
54	0x3cfb14ad	0.030649507
55	0x3ce73ae5	0.028226325
56	0x3d7b18c4	0.061302915
57	0x3dcaee32	0.099087134
58	0xbc308722	-0.010774406
59	0x3d061b72	0.032741018
60	0xbdb0312a	-0.08603127
61	0xbc873234	-0.01650343
62	0xbb540ff2	-0.0032358137
63	0xbd4db468	-0.050220877
64	0x3dd376ee	0.103254184
65	0x3d4f7c9f	0.050655957
66	0x3dcb827f	0.099369995
67	0xbd19b4ec	-0.037526056
68	0xbdd4fbd7	-0.10399597
69	0x3ddf9c1f	0.109184496
70	0x3c17bab8	0.009260826
71	0x3d20173d	0.03908466
72	0x3db052e9	0.08609564
73	0x3cf7a823	0.030231541
74	0xbc666469	-0.014062026
75	0xbdb39399	-0.087683864
76	0x3d2ab917	0.04168042
77	0xbdaec659	-0.085339256
78	0x3d610914	0.0549403
79	0xbdca075e	-0.098646864
80	0x3d535747	0.051596906
81	0x3ba28151	0.0049592634
82	0x3da1a5a9	0.07892925
83	0x3c0aa10d	0.008461249
84	0x3d879e85	0.06622032
85	0x3b61845d	0.003441117
86	0x3d959f94	0.07305828
87	0x3d1ec347	0.03876045
88	0x3d546e84	0.05186321
89	0xbd37061f	-0.044683572
90	0xbd9c7e98	-0.07641333
91	0x3d4b8792	0.049689837
92	0x3dd6f510	0.10495961
93	0xbccee0a7	-0.025253607
94	0x3dcfca28	0.1014598
95	0x3c0dacbf	0.008647143
96	0xbd4a6069	-0.04940835
97	0xbcf66307	-0.030076517
98	0x3daace56	0.08340137
99	0x3d4cec36	0.050029956
100	0xbdad9f12	-0.08477606
101	0xbc86567e	-0.016398665
102	0x3dba3c1b	0.090934955
103	0xbdd3704b	-0.103241526
104	0x3d35f592	0.044423647
105	0x3c966b99	0.018361853
106	0x3c999870	0.018749446
107	0x3d098dbc	0.033582434
108	0x3dc02e58	0.09383839
109	0xbd15eaec	-0.036600992
110	0x3c0b8746	0.008516138
111	0x3cd7ed72	0.02635834
112	0x3d527cbd	0.05138849
113	0x3d9a5707	0.075361304
114	0xbd918e69	-0.07107241
115	0x3d50f551	0.051015202
116	0xbd7ea80a	-0.062171973
117	0x3caed5ae	0.021342125
118	0x3c1e9324	0.009678636
119	0x3acb5ac7	0.0015514725
120	0xbd1df4ed	-0.038563658
121	0x3d2950e7	0.04133692
122	0xbd9174d3	-0.071023606
123	0xbd0e7bb3	-0.034785938
124	0xbd3a4ab5	-0.045481402
125	0xbdaacf2b	-0.083402954
126	0x3d542750	0.051795304
127	0xbd47cf56	-0.048781715
128	0x3d5a11d8	0.053239673
129	0x3d222cfc	0.03959368
130	0x3daeddec	0.08538422
131	0xbd4d0cee	-0.05006116
132	0x3cb749c7	0.022374047
133	0xbd90dd55	-0.07073466
134	0x3dc9e74a	0.09858568
135	0x3d99decf	0.075132005
136	0x3d038c44	0.03211619
137	0xbdc6da3e	-0.09709595
138	0x3d9bedd0	0.076137185
139	0xbda31366	-0.07962684
140	0xbd962683	-0.07331564
141	0xbca475c4	-0.020075686
142	0x3ccee101	0.025253775
143	0x3dc304d4	0.09522405
144	0x3d8c0b3f	0.068380825
145	0x3d14d0e6	0.036332034
146	0x3bd49964	0.006488012
147	0x3d81a79c	0.06330797
148	0x3d105c45	0.035244245
149	0xbdb81d24	-0.08989933
150	0x3d643941	0.055718664
151	0x3d800b94	0.06252208
152	0xbd262548	-0.040562898
153	0xbd9e15a2	-0.0771897
154	0x3d969871	0.07353295
155	0xbd593abc	-0.05303453
156	0xbd820a27	-0.06349593
157	0x3d145ac1	0.036219362
158	0xbdc7f279	-0.09763045
159	0xbc5711a5	-0.013126765
160	0x3d81f564	0.06345633
161	0xbd8fb125	-0.070162095
162	0xbcddadbb	-0.02706038
163	0xbd3349f5	-0.043771703
164	0xbda0aacd	-0.07845078
165	0x3c109e35	0.008826782
166	0x3c662f89	0.014049419
167	0x3dba32dd	0.09091733
168	0xbd84843d	-0.06470535
169	0xbd7e7384	-0.062121883
170	0x3ccd9d65	0.025099466
171	0x3dcad45d	0.09903786
172	0xbdbc10a7	-0.09182864
173	0x3dbd5de3	0.09246423
174	0x3dd7c8b1	0.10536326
175	0x3cca0be5	0.024663875
176	0x3d9a126e	0.075230464
177	0x3cbd148d	0.023081088
178	0x3d98ee94	0.0746738
179	0x3d3eeaa3	0.046610486
180	0xbd47f5c1	-0.048818354
181	0xbcf68e9e	-0.030097302
182	0xbc41a121	-0.011818201
183	0xbc812e18	-0.01576905
184	0x3c369b29	0.0111453915
185	0x3dc265de	0.09492086
186	0x3c4958ce	0.012289239
187	0x3b18c295	0.002330934
188	0xbd7c2868	-0.061561972
189	0x3c395e19	0.011313939
190	0xbd7256fa	-0.05916498
191	0x3c45d9c4	0.012075845
192	0x3d6b8cc3	0.057507288
193	0xbc9919dc	-0.018689089
194	0x3dc1fa7a	0.09471603
195	0xbda227a4	-0.07917717
196	0xbdef4f06	-0.116849944
197	0xbb3eb580	-0.0029099882
198	0x3c1c2115	0.009529372
199	0x3dbf4a25	0.09340314
200	0x3d8fe5d6	0.070262596
201	0xbdf4ccee	-0.1195315
202	0x3d9a7a88	0.07542902
203	0xbdc97f44	-0.09838727
204	0x3ba012c2	0.0048850486
205	0x3d238556	0.03992208
206	0x3c48c4b5	0.01225393
207	0xbcbb95bf	-0.022898553
208	0x3d74f270	0.05980152
209	0xbd2fdd00	-0.04293537
210	0xbdbf8992	-0.09352411
211	0xbd00238f	-0.03128391
212	0xbc876e2d	-0.016532028
213	0xbab8af7d	-0.0014090386
214	0xbd1a0761	-0.037604693
215	0xbd8b865b	-0.06812736
216	0xbd1adaa9	-0.037806187
217	0xbde5285e	-0.1118934
218	0xbd9b9c7b	-0.07598206
219	0xbc92de9a	-0.01792841
220	0x3d3be7c9	0.045875344
221	0x3d024c15	0.03181084
222	0xbc8134b2	-0.015772197
223	0xbd5cadb3	-0.05387659
224	0xbdba7b00	-0.09105492
225	0x3dbd96d1	0.092572816
226	0x3d2ff40c	0.04295735
227	0xbdbc1ee7	-0.09185582
228	0xbdd70c41	-0.10500384
229	0x3d0b0c8d	0.033947516
230	0xbd9ae64d	-0.07563458
231	0x3daa6ec4	0.08321908
232	0x3d188807	0.0372391
233	0x3d8694b9	0.06571335
234	0xbdb560ee	-0.088563785
235	0x3c80fbec	0.015745126
236	0x3c068706	0.008210903
237	0xbd5fe2e4	-0.05465974
238	0x3d645476	0.05574461
239	0xbda91891	-0.08256639
240	0xbc732f02	-0.0148427505
241	0xbd9a4ff1	-0.07534779
242	0x3dca1988	0.09868151
243	0x3d840b2c	0.06447443
244	0xbdd2c98c	-0.10292348
245	0xbd4a6836	-0.04941579
246	0xbd7b5e61	-0.061369304
247	0xbd94a48c	-0.07257947
248	0xbd0929ea	-0.033487238
249	0x3d316266	0.04330673
250	0x3a9309cb	0.0011218128
251	0xbcb7db61	-0.022443475
252	0xbd49f13e	-0.049302332
253	0x3dbdd740	0.09269571
254	0xbd6284f5	-0.05530258
255	0x3d450214	0.048097685

arith.constant4 f4 [25]
0	0xbd19ae5f	-0.03751981
1	0xbbac8e59	-0.0052659926
2	0x3d8d15c8	0.0688892
3	0x3ccc8e64	0.02497024
4	0x3d25bd72	0.040463872
5	0xbd153f2a	-0.03643719
6	0x3d10ea7b	0.035379868
7	0xbbdd9e71	-0.0067632725
8	0x3a8bb255	0.0010658005
9	0x3d0723d8	0.032993168
10	0xbc43f042	-0.011959137
11	0x3c9a7186	0.01885296
12	0xbd33d7c1	-0.04390693
13	0xbcc37ed8	-0.023864195
14	0x3da26154	0.0792872
15	0xbd22a4ba	-0.039707877
16	0x3d4710c0	0.04859996
17	0xbd03b4ea	-0.032154955
18	0xba1c2990	-0.0005957121
19	0xbbb1fc07	-0.0054316553
20	0x3e1d9463	0.15388636
21	0xbc96755d	-0.01836651
22	0xbd32d46e	-0.04365962
23	0xbc5bc04f	-0.013412549
24	0x3a87ffbb	0.0010375896

arith.constant5 f4 [5]
0	0xbdb90f91	-0.09036172
1	0xbe46c9a5	-0.19412859
2	0xbdb25e8e	-0.08709441
3	0xbde8b2d8	-0.11362237
4	0x3d9e222e	0.07721363

sequential_1/conv2d_1/convolution f4 [16, 3, 3, 1]
0	0xbb4e3703	-0.0031465895
1	0xbe3dabc7	-0.18522559
2	0xbe4e4aba	-0.20145693
3	0xbe774597	-0.2414764
4	0xbe27b959	-0.16379298
5	0xbe159400	-0.14607239
6	0xbd649301	-0.055804256
7	0x3d7da980	0.061929226
8	0xbd1222a7	-0.03567758
9	0xbe1e1d8e	-0.15440962
10	0x3dd93a30	0.106068015
11	0x3e131d86	0.14366731
12	0x3da6494e	0.081194505
13	0x3ea9e663	0.33183584
14	0x3eae68dc	0.34064376
15	0xbe0e670e	-0.139065
16	0x3d32fd49	0.043698583
17	0x3e376324	0.17908913
18	0xbd2442f7	-0.040102925
19	0xbd876b99	-0.066123195
20	0xbe603b33	-0.21897583
21	0xbe89e4cb	-0.26932368
22	0xbe917418	-0.28408885
23	0xbea4d4f8	-0.32193732
24	0x3d0e6056	0.03475984
25	0xbe46c908	-0.19412625
26	0xbd9f8846	-0.07789664
27	0x3e875c91	0.2643781
28	0x3da35e5a	0.079769805
29	0x3ccd324c	0.025048397
30	0x3da0022c	0.07812914
31	0x3e46499c	0.19364017
32	0x3e13bb81	0.14426996
33	0x3e06a70d	0.13149662
34	0x3e92d7a6	0.28680152
35	0x3e4dd33c	0.20100111
36	0xbe29b756	-0.16573843
37	0xbe25f215	-0.16205628
38	0x3e891a33	0.267778
39	0xbe98fe4b	-0.2988151
40	0x3d345d5d	0.04403435
41	0x3e946193	0.28980693
42	0xbe481c43	-0.19542031
43	0x3db11892	0.086472645
44	0x3e6a1f18	0.22863424
45	0x3dfb7a27	0.12279158
46	0x3cca073f	0.024661658
47	0x3e85b6f0	0.26116133
48	0xbe36f9a5	-0.1786867
49	0xbe272126	-0.16321239
50	0x3cc792a2	0.024361912
51	0xbe7f154e	-0.24910471
52	0xbd2bc822	-0.04193891
53	0x3e841ed6	0.25804776
54	0x3e86c1b5	0.26319662
55	0x3db169d4	0.08662763
56	0xbcb19efb	-0.021682253
57	0x3e0279df	0.12741803
58	0x3e73415f	0.23755406
59	0xbbb5b703	-0.0055454983
60	0xbe48e5fd	-0.19618984
61	0xbdfd3f6d	-0.12365613
62	0x3e4a68af	0.19766496
63	0x3e04deb3	0.12975578
64	0xba8555ca	-0.0010172662
65	0x3e939dc9	0.28831318
66	0x3ef685ce	0.4814896
67	0x3ead6315	0.33864656
68	0x3ec378da	0.3817814
69	0x3eb4c6ad	0.35307828
70	0x3e7ac7db	0.24490301
71	0x3d90c457	0.07068699
72	0x3e1fcb35	0.15604861
73	0x3df5509c	0.11978266
74	0x3ea1672f	0.31524035
75	0x3da01925	0.07817296
76	0x3e826cab	0.25473532
77	0x3eb2ece9	0.34946373
78	0xbc52d24c	-0.0128675215
79	0xbe259fe4	-0.16174275
80	0xbe5dfd0d	-0.21678562
81	0xbe1a8f13	-0.15093641
82	0xbda5a524	-0.08088139
83	0xbe64ef67	-0.2235695
84	0xbe84a0a9	-0.25903824
85	0xbe902767	-0.28155062
86	0xbe6d6dc0	-0.23186398
87	0x3c961432	0.018320177
88	0xbdc59084	-0.09646705
89	0x3ce12f16	0.027488273
90	0xbd2fa1ba	-0.042878844
91	0xbe4bfb84	-0.19920164
92	0x3e0d0299	0.13770522
93	0x3e31315a	0.17303982
94	0xbe58e21c	-0.21180004
95	0xbaff388c	-0.0019471808
96	0x3e489ed7	0.19591843
97	0xbe19352d	-0.14961691
98	0xbd107dad	-0.035276104
99	0x3e0e1fb9	0.13879289
100	0xbe855ff7	-0.26049778
101	0xbe12a7ee	-0.14321873
102	0x3d92744f	0.0715109
103	0x3e38cdda	0.18047276
104	0x3d13842e	0.03601473
105	0x3d9b9b33	0.07597961
106	0x3e6cfa7d	0.23142429
107	0x3d85c65d	0.065319754
108	0xbd582386	-0.052768253
109	0xbd805780	-0.06266689
110	0xbeb90116	-0.3613364
111	0x3e76eda9	0.24114098
112	0xbe378db5	-0.1792515
113	0x3d980fcc	0.07424888
114	0x3e8c745c	0.27432525
115	0x3d5866aa	0.052832283
116	0xbe5a2516	-0.2130321
117	0x3e374b93	0.17899923
118	0x3deedc8b	0.11663159
119	0x3e674705	0.22585686
120	0x3d91a8c7	0.0711227
121	0x3dc26a24	0.09492901
122	0x3e801b63	0.25020894
123	0xbd7d8379	-0.06189296
124	0xbd91c603	-0.07117846
125	0x3da1b06e	0.078949794
126	0x3dcb301c	0.099212855
127	0x3d0b34b9	0.033985827
128	0xbdb17935	-0.086656965
129	0xbe28de8d	-0.16491146
130	0xbd685274	-0.05671926
131	0x3e25c848	0.16189682
132	0xbd50303a	-0.050827242
133	0xbd6bb3ce	-0.057544522
134	0xbdf767d1	-0.12080348
135	0xbd9d079e	-0.076674685
136	0xbdab58c9	-0.08366544
137	0x3e403368	0.1876961
138	0xbd87111c	-0.0659506
139	0xbe36a741	-0.1783724
140	0x3e7f69bf	0.24942683
141	0xbd8b32bb	-0.067967854
142	0xbdd5eb26	-0.10445242
143	0x3dfbe9cf	0.12300455

sequential_1/conv2d_1/Relu;sequential_1/conv2d_1/add;sequential_1/conv2d_1/convolution; f4 [16]
0	0x3de832c5	0.113378085
1	0x3e28192b	0.16415851
2	0x3e8c902d	0.27453747
3	0x3dd331ba	0.10312219
4	0x3e3012a4	0.17194611
5	0xbd1c27d2	-0.038123913
6	0x3e9855e8	0.2975304
7	0x3e6fdf59	0.23425044
8	0x3d73e402	0.059543617
9	0x3e91dfb9	0.28491
10	0x3e45694c	0.19278449
11	0xbd79e264	-0.06100692
12	0x3d1a3192	0.03764493
13	0xbb68fa0c	-0.003554943
14	0xbd8050d8	-0.0626542
15	0xbd25514b	-0.04036073
